TestCOVID(Mine)/model.ckpt (torch, 25623 bytes, 5 tensors)

model.0.weight f4 [32, 116]
0.7071326 -0.27947974 -0.3895669 -0.049191445 0.18496552 -0.0069563305 -0.17470376 -0.09896301
-0.052054662 0.07831995 0.26160616 0.04392578 0.45813084 -0.060516447 0.05315924 0.12312022
-0.05971252 -0.2097007 -0.024662256 -0.15564337 0.12717803 0.018016566 -0.24283952 0.10515001
-0.024809245 -0.35490125 -0.2553967 -0.08255393 0.4584302 -0.22617419 0.31848416 -0.59679115
-0.2608181 -0.38806865 -0.22660898 0.15301281 0.14783742 0.18303971 0.10729334 -0.04589768
-0.0508316 0.009136727 -0.025772942 -0.073596336 0.047575735 -0.0013721824 0.0034938408 -0.0027691878
-0.032382526 0.104629256 0.05399981 -0.07711193 -0.033671107 0.10246258 -0.00231328 0.04740592
0.098188296 -0.018209374 0.08818456 -0.004748261 0.018998941 -0.122545965 0.024281653 -0.11887608
-0.1658956 0.047878925 0.047274195 0.053398725 0.058439378 -0.12296747 -0.08694968 -0.057457082
0.025417473 -0.022237225 0.08763806 0.036468282 0.007981974 0.02489997 0.024067426 0.023042642
-0.09085568 0.035076413 0.033116803 0.07156358 0.04641282 0.019375635 -0.14169371 -0.028511368
-0.013840969 -0.05030251 0.084355675 0.09784561 0.024732452 -0.12962914 0.07519912 -0.03511199
-0.06932904 0.013849995 -0.04910287 -0.09785987 0.24245825 0.2651062 0.09535725 0.047113672
0.02487586 -0.0049513867 0.06701628 0.086088635 -0.045467034 -0.1220335 0.020055922 0.015088508
-0.051427986 0.075919844 -0.060228586 0.043290153 0.07291155 -0.36836916 0.35663396 0.15681595
0.040292196 -0.001943299 -0.167763 0.12880236 0.16552536 -0.058510665 -0.021618145 -0.058395315
0.1927119 -0.21838212 -0.13794558 -0.2886695 0.0135895 -0.26555982 0.16680098 -0.19908959
0.38451794 0.21234654 -0.16631724 0.36738044 -0.18853776 -0.09925103 -0.19129689 0.25653362
0.14544415 0.010309331 0.18189631 -0.5720867 -0.065123536 -0.023235027 -0.13168886 -0.06126213
0.067542106 0.034783356 0.14367078 0.08420522 0.028138023 -0.08798346 -0.045819756 -0.06809986
-0.020474087 0.122232445 -0.05997852 0.03497468 0.002129966 0.006836707 0.042622287 -0.00039721315
0.0055204476 0.055773277 -0.042708423 0.050932664 0.09295246 0.04670818 0.002525203 0.012394311
-0.03405024 -0.02086113 0.020536426 -0.04369404 0.018350292 0.06688399 0.048459895 0.080218114
-0.035102684 -0.17594485 -0.058457077 -0.055816557 -0.007744756 -0.03191981 0.00026141523 -0.028445132
0.045160558 -0.046049424 0.091252 -0.037065897 -0.09252775 0.017342586 -0.023610797 -0.02856806
0.019962654 -0.16848089 -0.13548604 -0.013119528 0.009725764 0.033160668 -0.06364252 -0.07370128
-0.011572472 0.06362652 0.009040924 -0.014896712 0.028830366 -0.008400955 0.027835943 0.05229133
0.51490897 0.32743928 0.22576791 0.06798211 0.09989503 0.035469472 -0.09565128 0.017673476
-0.018084098 0.05080161 0.031295285 -0.015622203 0.05836542 -0.061328754 0.06319197 -0.037458073
-0.04954028 0.080999464 0.0045871586 -0.039141234 -0.046659246 0.068817995 0.04948487 -0.076539084
-0.055245273 0.001122647 0.060832612 0.03518761 0.08145817 0.0018375367 -0.07209104 -0.055442218
0.049541526 -0.022879682 -0.06710527 -0.07194841 0.037600596 0.081653364 -0.010306969 0.03490717
00000000: a406 353f f817 8fbe 5075 c7be f87c 49bd
00000010: 9a67 3d3e eef1 e3bb 8be5 32be 1ead cabd
00000020: 4537 55bd 3666 a03d 3ef1 853e 85eb 333d
00000030: 2090 ea3e 18e0 77bd 81bd 593d 7426 fc3d
00000040: 1e95 74bd c8bb 56be 8008 cabc fa60 1fbe
00000050: f53a 023e 7a97 933c ecaa 78be e358 d73d
00000060: c23c cbbc 9eb5 b5be 5bc3 82be 0912 a9bd
00000070: 5db7 ea3e 359a 67be 5b10 a33e 4ec7 18bf
00000080: f389 85be efb0 c6be 2f0c 68be 64af 1c3e
00000090: b162 173e c36e 3b3e 9cbc db3d 35ff 3bbd
000000a0: cc34 50bd 36b2 153c c721 d3bc adb9 96bd
000000b0: c6de 423d cdda b3ba ecf8 643b 437b 35bb
000000c0: 8aa3 04bd dd47 d63d e82e 5d3d dcec 9dbd
000000d0: b7ea 09bd e7d7 d13d 669a 17bb b62c 423d
000000e0: f216 c93d d32b 95bc 1b9a b43d 4d97 9bbb
000000f0: aba3 9b3c 61f9 fabd 51ea c63c 4d75 f3bd
00000100: 89e0 29be b11c 443d 96a2 413d 9fb8 5a3d
00000110: 215e 6f3d 5ed6 fbbd ac12 b2bd 1e58 6bbd
00000120: 4e38 d03c d72a b6bc 957b b33d c45f 153d
00000130: d3c6 023c 06fb cb3c 0d29 c53c ecc3 bc3c
00000140: 8b12 babd 49ac 0f3d 7ca5 073d ed8f 923d
00000150: 5f1b 3e3d a7b9 9e3c 2818 11be ac90 e9bc
00000160: 3bc5 62bc 010a 4ebd abc2 ac3d 4763 c83d
00000170: b69b ca3c 80bd 04be ff01 9a3d 97d1 0fbd
00000180: 62fc 8dbd 17eb 623c 1720 49bd c16a c8bd
00000190: fa46 783e 00bc 873e a94a c33d 44fa 403d
000001a0: 76c8 cb3c 3e3f a2bb d53f 893d 3d4f b03d
000001b0: a43b 3abd b3ec f9bd 514c a43c ca35 773c
000001c0: 27a6 52bd dd7b 9b3d 40b2 76bd 0451 313d
000001d0: a752 953d e29a bcbe ba98 b63e 5c94 203e
000001e0: 6e09 253d 4bb6 feba 10ca 2bbe c4e4 033e
000001f0: 7b7f 293e e1a8 6fbd 8918 b1bc ed2f 6fbd
00000200: 4556 453e 909f 5fbe 9b41 0dbe 7dcc 93be
00000210: 7fa6 5e3c 75f7 87be e0cd 2a3e 24de 4bbe
00000220: 89df c43e 5f71 593e 114f 2abe 4a19 bc3e
00000230: 0b10 41be 2044 cbbd 55e3 43be 6058 833e
00000240: 50ef 143e 78e8 283c 0743 3a3e 4674 12bf
00000250: 7d5f 85bd 6257 bebc 72d9 06be 00ee 7abd
00000260: 8453 8a3d fe78 0e3d 6f1e 133e c973 ac3d
00000270: b681 e63c ac30 b4bd 7fad 3bbd f077 8bbd
00000280: 46b9 a7bc 0155 fa3d 09ac 75bd 9c41 0f3d
00000290: e696 0b3b 7406 e03b b594 2e3d 0c41 d0b9
000002a0: dfe4 b43b 8572 643d 07ef 2ebd c59e 503d
000002b0: dc5d be3d 1451 3f3d e07d 253b 8211 4b3c
000002c0: 4478 0bbd f6e4 aabc 023c a83c 86f8 32bd
000002d0: 5a53 963c 79fa 883d e27d 463d 6549 a43d
000002e0: d5c7 0fbd e32a 34be b070 6fbd e79f 64bd
000002f0: b9c7 fdbb 59be 02bd 8f0e 8939 c405 e9bc
00000300: 47fa 383d 529e 3cbd 54e2 ba3d 69d2 17bd
00000310: 307f bdbd 0a12 8e3c 6e6b c1bc 9007 eabc
00000320: b888 a33c 4186 2cbe dabc 0abe 4af3 56bc
00000330: d058 1f3c 7bd3 073d 0257 82bd b2f0 96bd
00000340: 779a 3dbc 9f4e 823d 6220 143c 5711 74bc
00000350: a92d ec3c 29a4 09bc 3408 e43c 6f2f 563d
00000360: 13d1 033f 1fa6 a73e b42f 673e 343a 8b3d
00000370: c495 cc3d 7048 113d d1e4 c3bd f7c7 903c
00000380: 1a25 94bc 5915 503d 7c2f 003d 45f4 7fbc
00000390: 9410 6f3d dc33 7bbd cb6a 813d a36d 19bd
000003a0: c0ea 4abd 0ce3 a53d e04f 963b 8f52 20bd
000003b0: c41d 3fbd 73f0 8c3d a6b0 4a3d 86c0 9cbd
000003c0: de48 62bd c825 933a 9e2b 793d e220 103d
000003d0: 8bd3 a63d 80d9 f03a 78a4 93bd 6117 63bd
000003e0: 0eec 4a3d 2c6e bbbc 7d6e 89bd b059 93bd
000003f0: 1503 1a3d e139 a73d 90de 28bc d2fa 0e3d

model.0.bias f4 [32]
0.068145745 0.015738213 -0.09610932 -0.06930866 -0.037392627 0.038449503 -0.07838438 -0.00530593
-0.066649355 -0.022073135 0.038617734 0.07381252 0.07831555 0.08199159 0.06404409 0.00078175217
-0.02354326 -0.011334419 0.008382447 -0.03802973 0.01322696 0.04978205 0.05773258 0.0967278
0.0046568387 -0.015255049 -0.045910228 -0.0069548497 -0.05369637 0.03830751 0.06732067 -0.047235284
00000000: ff8f 8b3d 6ded 803c f7d4 c4bd b3f1 8dbd
00000010: 0329 19bd 3a7d 1d3d fd87 a0bd 5edd adbb
00000020: 757f 88bd b8d2 b4bc a12d 1e3d 052b 973d
00000030: e763 a03d 35eb a73d 8c29 833d 80ee 4c3a
00000040: cbdd c0bc 00b4 39bc 8856 093c 10c5 1bbd
00000050: e4b5 583c 43e8 4b3d ff78 6c3d 3a19 c63d
00000060: 6598 983b 50f0 79bc 5d0c 3cbd 82e5 e3bb
00000070: baf0 5bbd 56e8 1c3d 6bdf 893d c979 41bd

model.2.weight f4 [64, 32]
-0.15394938 -0.04404482 0.056493685 -0.085884064 0.12901181 -0.08840359 -0.11005131 0.06205412
-0.092715815 0.014699936 0.0034710488 0.09567917 0.013333961 -0.0005495548 0.017851062 0.14897133
0.13360535 -0.010015398 0.14098535 0.030958652 -0.12685736 -0.11725785 0.09058791 -0.04021585
0.086720034 0.030013844 -0.1138489 -0.04481067 0.08835143 -0.08595595 0.12543385 -0.154863
0.1577167 -0.06926136 -0.1387785 0.19408901 0.09488608 -0.020117473 0.11067548 0.046973422
0.027499631 -0.07630625 -0.09370911 0.07619167 -0.03260562 0.12100576 0.113120615 -0.07345858
0.057659063 0.1588292 0.06590648 -0.1701105 -0.04495321 0.03414953 -0.12609836 -0.07711004
-0.05134926 -0.030308753 -0.16784178 -0.090559125 -0.05686559 0.087021545 0.12703435 -0.14831059
-0.007027164 0.047495574 0.10066293 0.05983244 0.028065413 0.04797885 -0.08343537 -0.10538777
-0.17338079 -0.16923302 0.03123638 -0.02524221 -0.026728734 -0.12036148 -0.15559086 -0.13767502
-0.057984956 0.12419514 -0.047902256 -0.07688514 0.04347247 0.15030243 -0.16018678 -0.14116424
-0.11986643 0.0017385781 -0.14278677 -0.04462403 0.11877851 -0.11631259 -0.051590353 0.1742241
0.06866606 -0.12343085 0.13188379 0.036496375 -0.13242821 0.23647378 0.008674621 0.03432947
-0.1473616 0.023859188 -0.03914566 0.08636923 0.124638125 0.09242089 -0.036254596 -0.003814444
0.1192079 0.1450455 0.074538514 -0.13274622 0.20486814 -0.004032302 0.192905 0.042325858
-0.029429361 -0.08664353 0.12552053 -0.006286662 -0.05876613 0.17488928 0.027095169 0.050678283
0.12847967 0.11036505 0.14155827 0.076771334 -0.15221407 -0.052721824 -0.004982809 0.036533397
-0.1115016 -0.03957045 0.053516492 -0.24709076 -0.15367413 0.05874616 -0.16938443 0.091562346
-0.14718959 0.17226107 0.021353275 0.034588933 0.04287879 -0.13761926 0.0656548 0.10914996
-0.061328657 -0.083403006 -0.0183568 -0.08277388 0.16382574 0.11780338 0.15769963 -0.13958327
0.050048128 -0.029618504 0.14229588 0.12564307 -0.1998959 0.10885259 -0.048024297 0.09954125
-0.17220895 -0.16026038 0.12564568 0.14553028 -0.0010423511 -0.15575609 -0.13847394 0.060110718
0.18880086 0.05244866 0.038047954 0.016322687 -0.14934537 0.11896324 0.093074255 0.08074362
0.07614915 -0.044651955 -0.17723635 0.12000892 0.14134158 -0.056950614 -0.05420401 0.02584204
-0.2647042 0.02499402 -0.06992842 0.072384454 0.066755384 -0.1306951 -0.114069454 -0.007901866
-0.015662104 0.11387269 -0.04016135 0.057537023 0.03381987 -0.012074336 -0.043924395 0.11638598
-0.093049675 -0.0134304315 0.1255341 0.009380624 -0.2421608 -0.037420746 -0.16915363 0.066190444
0.037158877 0.028632477 -0.12957776 0.041118633 0.035128556 0.09308724 -0.12795608 0.048353672
0.10521609 -0.1233893 -0.11502285 0.025726333 -0.088553034 0.03240354 -0.19054599 -0.17924887
-0.05334623 0.07302818 -0.052528333 -0.018456543 0.124751374 -0.021359563 -0.059933186 -0.10768781
-0.093235925 0.06222664 -0.008318901 -0.15576482 -0.17253256 -0.036382142 0.118455976 0.03588561
0.09364547 -0.06710343 0.0120437 0.14775397 0.10432047 -0.0027663857 -0.017023578 0.008249611
00000000: e8a4 1dbe 5768 34bd ec65 673d fce3 afbd
00000010: ac1b 043e f10c b5bd 9562 e1bd 762c 7e3d
00000020: cae1 bdbd 00d8 703c 897a 633b 71f3 c33d
00000030: b076 5a3c 0010 10ba 643c 923c f18b 183e
00000040: d7cf 083e a017 24bc 775e 103e 009d fd3c
00000050: e5e6 01be e224 f0bd 2786 b93d 60b9 24bd
00000060: 469a b13d 98df f53c 9d29 e9bd 658b 37bd
00000070: 98f1 b43d ac09 b0bd bb71 003e 6894 1ebe
00000080: 7d80 213e e6d8 8dbd f31b 0ebe 45bf 463e
00000090: a253 c23d 66cd a4bc d3a9 e23d 3467 403d
000000a0: e846 e13c 7446 9cbd 90ea bfbd 610a 9c3d
000000b0: 788d 05bd ded1 f73d c8ab e73d 7471 96bd
000000c0: e92b 6c3d 1fa4 223e faf9 863d 7231 2ebe
000000d0: db20 38bd 61e0 0b3d ee1f 01be deeb 9dbd
000000e0: 9a53 52bd 104a f8bc b7de 2bbe 1077 b9bd
000000f0: e5eb 68bd 5a38 b23d 4b15 023e bbde 17be
00000100: 2044 e6bb b88a 423d 5e28 ce3d dc12 753d
00000110: 70e9 e53c 7885 443d 2ae0 aabd 8bd5 d7bd
00000120: bc8a 31be 6c4b 2dbe 70e3 ff3c c0c8 cebc
00000130: 38f6 dabc 1480 f6bd 3653 1fbe aefa 0cbe
00000140: a281 6dbd 065a fe3d 2835 44bd f575 9dbd
00000150: 3010 323d e1e8 193e 0108 24be 5c8d 10be
00000160: 887c f5bd 00e1 e33a b236 12be b0c7 36bd
00000170: 2642 f33d 4c35 eebd 6850 53bd cd67 323e
00000180: cba0 8c3d 50c9 fcbd 8b0c 073e 397d 153d
00000190: 439b 07be 2f26 723e ff1f 0e3c 0f9d 0c3d
000001a0: f6e5 16be 5874 c33c 3357 20bd 5ae2 b03d
000001b0: 4642 ff3d 2a47 bd3d b37f 14bd c0fb 79bb
000001c0: 4523 f43d cf86 143e a6a7 983d a0ee 07be
000001d0: f4c8 513e 6721 84bb e388 453e e15d 2d3d
000001e0: d815 f1bc 2a72 b1bd 7488 003e 5800 cebb
000001f0: c1b4 70bd 2d16 333e b0f6 dd3c 0894 4f3d
00000200: 2d90 033e 1207 e23d a7f4 103e 4a3a 9d3d
00000210: 01de 1bbe d7f2 57bd d546 a3bb 0ba4 153d
00000220: f35a e4bd a014 22bd 1c34 5b3d 5c05 7dbe
00000230: c05c 1dbe d09f 703d 1d73 2dbe 0a85 bb3d
00000240: deb8 16be 3565 303e 10ed ae3c 20ad 0d3d
00000250: aca1 2f3d 10ec 0cbe 0676 863d 048a df3d
00000260: c233 7bbd 32cf aabd 0061 96bc 5a85 a9bd
00000270: efc1 273e e642 f13d 037c 213e ebee 0ebe
00000280: 44ff 4c3d 81a2 f2bc 03b6 113e 94a8 003e
00000290: 83b1 4cbe 1bee de3d 20b5 44bd 48dc cb3d
000002a0: 8b57 30be 4c1b 24be 43a9 003e e405 153e
000002b0: 809f 88ba 867e 1fbe 1dcc 0dbe a836 763d
000002c0: 0355 413e 68d4 563d 2cd8 1b3d 28b7 853c
000002d0: feed 18be 00a3 f33d b79d be3d e95c a53d
000002e0: 16f4 9b3d f8e4 36bd 727d 35be 3dc7 f53d
000002f0: d9bb 103e 0c45 69bd 0605 5ebd b0b2 d33c
00000300: 4f87 87be 42c0 cc3c a236 8fbd 4d3e 943d
00000310: 0cb7 883d f0d4 05be 3f9d e9bd d476 01bc
00000320: d04d 80bc 1636 e93d 3a80 24bd f1ab 6b3d
00000330: b486 0a3d 70d3 45bc 11ea 33bd c65b ee3d
00000340: d490 bebd 500b 5cbc 038c 003e 30b1 193c
00000350: 00f9 77be 7f46 19bd 9c36 2dbe db8e 873d
00000360: e833 183d a88e ea3c 08b0 04be 036c 283d
00000370: f6e2 0f3d 86a4 be3d eb06 03be 800e 463d
00000380: 897b d73d 88b3 fcbd 1a91 ebbd 08c0 d23c
00000390: 4b5b b5bd 93b9 043d 7d1e 43be 048d 37be
000003a0: 9481 5abd cc8f 953d f327 57bd 2d32 97bc
000003b0: a67d ff3d 40fa aebc 807c 75bd 6d8b dcbd
000003c0: 7af2 bebd 5ce1 7e3d 004c 08bc d080 1fbe
000003d0: 60ac 30be 7105 15bd 0c99 f23d cafc 123d
000003e0: 32c9 bf3d 866d 89bd f052 453c d14c 173e
000003f0: f8a5 d53d 404c 35bb 0875 8bbc 6029 073c

model.2.bias f4 [64]
-0.06209494 0.06733027 0.06860426 -0.06182162 0.080994084 -0.100044645 -0.0706277 0.12115916
-0.18163767 0.032685846 0.15538646 -0.093295984 0.1825572 0.110232696 0.046458054 -0.04189365
-0.13460642 -0.1269437 0.2026293 -0.07760734 0.085129336 -0.021850258 -0.1295675 -0.17408931
0.0870336 -0.0135162175 0.019000813 -0.12670933 -0.1541618 0.04422822 0.100137845 -0.13279843
0.2123554 0.13487285 0.05993754 -0.043210268 -0.14940947 -0.10502924 0.054900702 0.1222928
-0.1543097 -0.201268 -0.14921692 0.006950289 0.12623765 0.045190528 0.060608562 -0.023150662
0.059994593 -0.0399781 -0.14836052 -0.19282018 0.12559007 0.06717104 -0.09344672 -0.048140682
0.013860494 0.12877277 0.15773012 0.1404632 0.083917126 -0.086056575 -0.17955427 0.1574624
00000000: 4457 7ebd 74e4 893d 6480 8c3d ab38 7dbd
00000010: 3ae0 a53d 35e4 ccbd 41a5 90bd 4b22 f83d
00000020: 3aff 39be 98e1 053d a11d 1f3e f711 bfbd
00000030: 46f0 3a3e aec1 e13d cd4a 3e3d ad98 2bbd
00000040: 44d6 09be 87fd 01be 0e7e 4f3e 99f0 9ebd
00000050: 4a58 ae3d 50ff b2bc 58ad 04be 7844 32be
00000060: ac3e b23d 2073 5dbc 98a7 9b3c 17c0 01be
00000070: 97dc 1dbe a628 353d 1215 cd3d 50fc 07be
00000080: b273 593e 1c1c 0a3e 1181 753d 40fd 30bd
00000090: ccfe 18be 9219 d7bd 8fdf 603d a674 fa3d
000000a0: 5d03 1ebe 3319 4ebe 52cc 18be 40bf e33b
000000b0: 7144 013e b419 393d af40 783d 75a6 bdbc
000000c0: e4bc 753d 14c0 23bd d2eb 17be a772 45be
000000d0: af9a 003e f890 893d fe60 bfbd 2a2f 45bd
000000e0: 2017 633c 02dd 033e 0184 213e 96d5 0f3e
000000f0: bedc ab3d 6e3e b0bd 13dd 37be d33d 213e

model.4.weight f4 [1, 64]
-0.057301164 0.027101886 -0.071559146 -0.024666093 -0.047484495 -0.003347462 -0.0033154672 0.050025538
0.021780236 -0.061918512 0.103551105 0.01836832 0.12078934 -0.06494142 0.09955173 0.12201011
0.08016178 -0.006662291 0.064244114 0.17559592 0.07047665 -0.015113801 0.12701935 -0.08767314
0.11879236 -0.11268942 0.0026268007 -0.12159908 -0.060999498 -0.0024073685 0.14551376 0.09518338
0.1282387 0.08405669 -0.083485544 0.08682179 -0.055069104 0.1390921 0.002462198 0.116328076
-0.06335169 -0.00024797238 -0.056222744 0.07587777 -0.116624534 0.028241247 0.0010663997 0.20660877
0.05413342 0.038458027 -0.0894742 0.049194444 0.0029940903 -0.01971939 0.3090767 -0.04052834
0.07881239 0.06454362 0.09233514 0.038197987 -0.025847487 -0.028829277 -0.08070287 -0.10877338
00000000: a0b4 6abd c604 de3c 9a8d 92bd 8c10 cabc
00000010: 1a7f 42bd 1861 5bbb 4f48 59bb 94e7 4c3d
00000020: 776c b23c 449e 7dbd 9a12 d43d 2979 963c
00000030: 6760 f73d 0200 85bd c7e1 cb3d 70e0 f93d
00000040: dc2b a43d 594f dabb 6b92 833d 6bcf 333e
00000050: 1056 903d e09f 77bc 5c11 023e fa8d b3bd
00000060: 6949 f33d b6c9 e6bd 6726 2c3b f008 f9bd
00000070: 9cda 79bd f1c4 1dbb 8f01 153e 81ef c23d
00000080: 0151 033e ea25 ac3d 78fa aabd 9fcf b13d
00000090: 2490 61bd 296e 0e3e d45c 213b 6a3d ee3d
000000a0: 88be 81bd 4a02 82b9 d249 66bd ce65 9b3d
000000b0: d8d8 eebd 305a e73c 70c6 8b3a 4091 533e
000000c0: 01bb 5d3d 2a86 1d3d 403e b7bd 1d80 493d
000000d0: 8038 443b 8f8a a1bc 4d3f 9e3e 0b01 26bd
000000e0: 6468 a13d 722f 843d 351a bd3d 7e75 1c3d
000000f0: 1cbe d3bc 602b ecbc 8c47 a5bd 94c4 debd
